…
sv_h=0.015, hsv_s=0.7, hsv_v=0.4, degrees=0.0, translate=0.1, scale=0.5, shear=0.0, perspective=0.0, flipud=0.0, fliplr=0.5, bgr=0.0, mosaic=1.0, mixup=0.0, copy_paste=0.0, copy_paste_mode=flip, auto_augment=randaugment, erasing=0.4, crop_fraction=1.0, cfg=None, tracker=botsort.yaml, save_dir=yolo11x_training/yolov11x_finetune\n",
            "Overriding model.yaml nc=80 with nc=8\n",
            "\n",
            "                   from  n    params  module                                       arguments                     \n",
            "  0                  -1  1      2784  ultralytics.nn.modules.conv.Conv             [3, 96, 3, 2]                 \n",
            "  1                  -1  1    166272  ultralytics.nn.modules.conv.Conv             [96, 192, 3, 2]               \n",
            "  2                  -1  2    389760  ultralytics.nn.modules.block.C3k2            [192, 384, 2, True, 0.25]     \n",
            "  3                  -1  1   1327872  ultralytics.nn.modules.conv.Conv             [384, 384, 3, 2]              \n",
            "  4                  -1  2   1553664  ultralytics.nn.modules.block.C3k2            [384, 768, 2, True, 0.25]     \n",
            "  5                  -1  1   5309952  ultralytics.nn.modules.conv.Conv             [768, 768, 3, 2]              \n",
            "  6                  -1  2   5022720  ultralytics.nn.modules.block.C3k2            [768, 768, 2, True]           \n",
            "  7                  -1  1   5309952  ultralytics.nn.modules.conv.Conv             [768, 768, 3, 2]              \n",
            "  8                  -1  2   5022720  ultralytics.nn.modules.block.C3k2            [768, 768, 2, True]           \n",
            "  9                  -1  1   1476864  ultralytics.nn.modules.block.SPPF            [768, 768, 5]                 \n",
            " 10                  -1  2   3264768  ultralytics.nn.modules.block.C2PSA           [768, 768, 2]                 \n",
            " 11                  -1  1         0  torch.nn.modules.upsampling.Upsample         [None, 2, 'nearest']          \n",
            " 12             [-1, 6]  1         0  ultralytics.nn.modules.conv.Concat           [1]                           \n",
            " 13                  -1  2   5612544  ultralytics.nn.modules.block.C3k2            [1536, 768, 2, True]          \n",
            " 14                  -1  1         0  torch.nn.modules.upsampling.Upsample         [None, 2, 'nearest']          \n",
            " 15             [-1, 4]  1         0  ultralytics.nn.modules.conv.Concat           [1]                           \n",
            " 16                  -1  2   1700352  ultralytics.nn.modules.block.C3k2            [1536, 384, 2, True]          \n",
            " 17                  -1  1   1327872  ultralytics.nn.modules.conv.Conv             [384, 384, 3, 2]              \n",
            " 18            [-1, 13]  1         0  ultralytics.nn.modules.conv.Concat           [1]                           \n",
            " 19                  -1  2   5317632  ultralytics.nn.modules.block.C3k2            [1152, 768, 2, True]          \n",
            " 20                  -1  1   5309952  ultralytics.nn.modules.conv.Conv             [768, 768, 3, 2]              \n",
            " 21            [-1, 10]  1         0  ultralytics.nn.modules.conv.Concat           [1]                           \n",
            " 22                  -1  2   5612544  ultralytics.nn.modules.block.C3k2            [1536, 768, 2, True]          \n",
            " 23        [16, 19, 22]  1   3154792  ultralytics.nn.modules.head.Detect           [8, [384, 768, 768]]          \n",
            "YOLO11x summary: 631 layers, 56,883,016 parameters, 56,883,000 gradients, 195.5 GFLOPs\n",
            "\n",
            "Transferred 1009/1015 items from pretrained weights\n",
            "\u001b[34m\u001b[1mTensorBoard: \u001b[0mStart with 'tensorboard --logdir yolo11x_training/yolov11x_finetune', view at http://localhost:6006/\n",
            "Freezing layer 'model.23.dfl.conv.weight'\n",
…
